Tue Apr 17 12:48:01 EDT 2018
Job started... (1 GPU)
Module loaded.
Data shape after undersample:  (666242, 10)
Found 246090 unique tokens.
Shape of data tensor:  (666242, 100)
Shape of label tensor: (666242,)
Found 400000 word vectors.
Build LSTM model...
_________________________________________________________________
Layer (type)                 Output Shape              Param #   
=================================================================
input_1 (InputLayer)         (None, 100)               0         
_________________________________________________________________
embedding_1 (Embedding)      (None, 100, 100)          1000000   
_________________________________________________________________
bidirectional_1 (Bidirection (None, 100, 100)          60400     
_________________________________________________________________
global_max_pooling1d_1 (Glob (None, 100)               0         
_________________________________________________________________
dense_1 (Dense)              (None, 50)                5050      
_________________________________________________________________
dropout_1 (Dropout)          (None, 50)                0         
_________________________________________________________________
dense_2 (Dense)              (None, 1)                 51        
=================================================================
Total params: 1,065,501
Trainable params: 1,065,501
Non-trainable params: 0
_________________________________________________________________
None
Train on 426394 samples, validate on 106599 samples
Epoch 1/20
 - 4437s - loss: 0.3581 - acc: 0.8406 - val_loss: 0.3172 - val_acc: 0.8649
Epoch 2/20
 - 4420s - loss: 0.2986 - acc: 0.8734 - val_loss: 0.2996 - val_acc: 0.8721
…
